best_shot_predictor.pth (torch, 14976 bytes, 5 tensors)

network.0.weight f4 [64, 13]
0	0x3e4aa21f	0.19788407
1	0x3e85530d	0.26039925
2	0xbd8f9253	-0.07010331
3	0x3e86387e	0.26214975
4	0xbd3abe2c	-0.04559152
5	0x3d61ab45	0.055094976
6	0xbe10a53c	-0.14125532
7	0x3e494dbe	0.19658563
8	0x3e6aaf9d	0.22918554
9	0xbe4e00ae	-0.20117447
10	0x3e7e5d96	0.24840388
11	0x3d70b9c3	0.058770906
12	0x3e454d68	0.1926781
13	0x3d378ce5	0.044812102
14	0x3e1ce4d7	0.1532167
15	0xbd48d3a9	-0.04902998
16	0x3e3a51c6	0.18195257
17	0x3bf51766	0.007479596
18	0xbdf44a7a	-0.11928268
19	0x3d76b74a	0.06023339
20	0xbdf966c5	-0.12177805
21	0xbcbc0e13	-0.02295593
22	0xbdb29beb	-0.08721145
23	0x3e2f741b	0.17134134
24	0xbe4ef4de	-0.20210597
25	0xbdff3639	-0.12461514
26	0xbdbab802	-0.09117128
27	0xbe12443a	-0.14283839
28	0x3d2cc915	0.042183954
29	0xbe8a4c4c	-0.27011335
30	0x3e6e2cfb	0.23259346
31	0xbe730123	-0.23730902
32	0x3e5d4057	0.21606575
33	0x3d4f6cbc	0.050640807
34	0xbdcf9b11	-0.101369984
35	0x3e33add9	0.17546786
36	0x3d439789	0.047751937
37	0x3e5704ea	0.20997968
38	0x3cf0dded	0.029402697
39	0xbd80d09e	-0.062897906
40	0x3d90f668	0.07078248
41	0xbdbfcfa9	-0.0936578
42	0x3dfdef0b	0.123991095
43	0x3e849632	0.2589584
44	0x3e209c66	0.15684661
45	0xbdf5426a	-0.11975558
46	0x3e173ca6	0.1476923
47	0x3d6e5227	0.058183815
48	0x3dd9edbc	0.10641047
49	0xbe161956	-0.14658102
50	0xbe82e973	-0.25568733
51	0xbdc4f016	-0.09616105
52	0xbe72de94	-0.2371772
53	0x3e8803f8	0.26565528
54	0x3dc9d61f	0.098552935
55	0x3dcc4165	0.099734105
56	0x3d90461a	0.07044621
57	0xbce8efa0	-0.028434575
58	0x3e54f2e2	0.20795777
59	0xbe4b962d	-0.19881506
60	0x3ceeb564	0.029139228
61	0xbe513f61	-0.20434333
62	0x3dd56feb	0.10421737
63	0xbd9ff47e	-0.07810305
64	0x3d89280f	0.06697094
65	0xbd1bdf74	-0.0380549
66	0x3e5c7147	0.21527587
67	0xbe2320da	-0.159305
68	0xbe02927c	-0.12751192
69	0xbdf39375	-0.118933596
70	0x3e7c0b9d	0.24613805
71	0x3dbdf9c3	0.09276154
72	0x3e8e0e8a	0.27745467
73	0xbe7b4df0	-0.2454145
74	0xbe8a4b25	-0.27010456
75	0xbe6e1820	-0.2325139
76	0xbe5f9d24	-0.21837288
77	0x3e1045d7	0.14089142
78	0x3e1cfea8	0.15331519
79	0x3e49ec76	0.19719109
80	0xbe22efc8	-0.15911782
81	0xbe4f51bb	-0.20246021
82	0x3e19b511	0.15010478
83	0xbdc5fa7f	-0.09666919
84	0x3e341b96	0.17588648
85	0xbd92c46a	-0.07166369
86	0x3e1ed7f0	0.15512061
87	0xbe85a663	-0.26103505
88	0xbe1ef1d5	-0.15521939
89	0x3d5eb867	0.05437508
90	0x3dd82968	0.105547726
91	0xbdf7f4e7	-0.12107258
92	0x3e592415	0.2120517
93	0x3e5e069d	0.2168221
94	0xbe5d415c	-0.21606964
95	0xbe368ca6	-0.1782709
96	0x3e6a15ab	0.22859828
97	0xbde4f88e	-0.111802205
98	0xbd5c2fcf	-0.05375653
99	0xbe9484bf	-0.29007527
100	0xbdef4fce	-0.116851434
101	0x3da36d67	0.07979851
102	0xbc953077	-0.018211586
103	0xbe82b7a3	-0.2553073
104	0x3d61484e	0.055000596
105	0xbe3ec50e	-0.18629858
106	0xbe6a28d5	-0.22867139
107	0xbe245e2e	-0.16051552
108	0xbe781114	-0.24225265
109	0xbe2116b0	-0.15731311
110	0x3e908a29	0.28230408
111	0x3ce7f7f4	0.028316475
112	0x3dcefc0f	0.1010667
113	0xbe97514c	-0.29554212
114	0xbe50e415	-0.20399506
115	0xbdba3b2f	-0.090933196
116	0x3da844cc	0.08216247
117	0xbe69b3c2	-0.22822478
118	0xbe25e55a	-0.16200772
119	0xbe361e29	-0.17784943
120	0xbce3b5f5	-0.027796725
121	0xbdf44cbc	-0.119286984
122	0xbc86f8c0	-0.016476035
123	0xbe3fe81a	-0.18740883
124	0xbe4cf397	-0.20014797
125	0xbe21b799	-0.15792693
126	0xbddbde9f	-0.10735821
127	0xbe608f45	-0.21929653
128	0x3e743948	0.23849976
129	0xbd544c5b	-0.05183063
130	0x3e88bb39	0.2670534
131	0x3d9ca94e	0.0764948
132	0xbe647bd4	-0.22312862
133	0x3e4600f0	0.19336295
134	0xbd83b9de	-0.06431936
135	0xbdbac4ab	-0.09119543
136	0xbe67a9ca	-0.22623363
137	0xbe9b23d8	-0.30300784
138	0x3db3cec2	0.0877967
139	0xbdb9e529	-0.09076912
140	0x3df28289	0.11841304
141	0xbe80489a	-0.2505539
142	0x3e60d8a5	0.21957643
143	0xbe67b04e	-0.22625849
144	0xbce61f51	-0.028091105
145	0x3d8679d2	0.06566204
146	0x3e17dc70	0.14830184
147	0x3e65d815	0.2244571
148	0x3e898d1b	0.26865467
149	0xbe42d4ae	-0.19026443
150	0x3d94a5af	0.07258164
151	0xbe22ec68	-0.15910494
152	0xbcb14427	-0.021638943
153	0xbe4b9a28	-0.19883025
154	0x3e82db02	0.25557715
155	0xbe711bae	-0.23545715
156	0x3e3f2fdc	0.186706
157	0x3d8a3585	0.06748489
158	0x3d9e246f	0.07721793
159	0xbe309ac4	-0.17246538
160	0x3e7f3620	0.24922991
161	0x3dad6b94	0.084677845
162	0x3d044a47	0.0322974
163	0xbe774291	-0.24146487
164	0x3df610fb	0.120149575
165	0xbd7df100	-0.061997414
166	0xbe021f73	-0.1270731
167	0x3e5a40ce	0.21313784
168	0x3dbd91b9	0.0925631
169	0xbe436a54	-0.1908353
170	0xbda8ca71	-0.08241738
171	0xbc26fa1e	-0.0101914685
172	0x3e1bfdb4	0.15233499
173	0xbdbb7a9e	-0.09154247
174	0xbe28aae6	-0.16471443
175	0xbd9da9de	-0.07698415
176	0xbe548cca	-0.20756832
177	0x3da75b06	0.08171658
178	0x3e82d238	0.2555101
179	0xbe88b5ec	-0.26701295
180	0x3d4671a2	0.048448212
181	0x3df2439c	0.11829302
182	0x3dae19b7	0.085009985
183	0xbdfe9eb4	-0.12432614
184	0x3de64583	0.11243727
185	0x3e1e5e82	0.1546574
186	0x3e0117e3	0.12606768
187	0xbd3fc85d	-0.04682194
188	0xbdd33e2b	-0.10314592
189	0x3d2834f4	0.041066125
190	0xbce5c375	-0.028047303
191	0xbdc83cd0	-0.09777224
192	0x3e33512a	0.1751143
193	0x3e6359c2	0.22202209
194	0xbb976b6a	-0.004620959
195	0xbdf83702	-0.12119867
196	0x3d4c6cc3	0.04990841
197	0x3c3b6ed8	0.011440001
198	0x3d3cf75b	0.046134334
199	0x3d393916	0.045220457
200	0xbe842cdd	-0.25815478
201	0xbd493e46	-0.049131654
202	0x3e5f0e4f	0.21782802
203	0x3d9d5655	0.07682482
204	0x3d502072	0.050812192
205	0xbe38fe08	-0.18065655
206	0xbe2e2792	-0.17007282
207	0xbe942341	-0.28933147
208	0xbdb20cfb	-0.08693882
209	0x3d9c3a1c	0.07628271
210	0x3e1db10e	0.15399572
211	0x3e0d5d7f	0.13805197
212	0xbe6780a7	-0.2260767
213	0xbe3088a0	-0.17239618
214	0xbd346133	-0.04403801
215	0x3e8d4d2a	0.27597934
216	0x3d107415	0.035266954
217	0xbd9f2fe1	-0.07772804
218	0x3df768bb	0.120805226
219	0xbdf002d6	-0.11719291
220	0xbe2e0a23	-0.16996054
221	0x3e5d5d6a	0.21617666
222	0xbdf06adb	-0.11739131
223	0xbd40bf9c	-0.047057733
224	0xbe7ebd60	-0.24876928
225	0x3e5e410d	0.21704502
226	0x3e590b32	0.21195677
227	0x3db5d6d9	0.088788696
228	0xbe28261e	-0.1642079
229	0xbe900a9c	-0.28133094
230	0xbe6eb3c5	-0.23310764
231	0x3e49058a	0.19631019
232	0x3e042cd3	0.12907724
233	0x3e7d9cdb	0.24766867
234	0x3e4dd3c8	0.2010032
235	0x3d12f1b4	0.035875037
236	0x3c37f69a	0.011228228
237	0xbe63779e	-0.22213599
238	0xbe7af81e	-0.24508712
239	0xbe73c95a	-0.23807278
240	0x3df423c0	0.11920881
241	0xbe22a111	-0.15881754
242	0xbd35853b	-0.04431651
243	0xbe474aa5	-0.19462068
244	0xbdb34258	-0.087528884
245	0xbe42efc4	-0.19036776
246	0xbe0eb943	-0.13937859
247	0x3e1fe839	0.1561593
248	0xbdcc0630	-0.09962118
249	0x3e28d86c	0.16488808
250	0xbdc9e858	-0.09858769
251	0xbe508c33	-0.20365982
252	0xbd7ac9ca	-0.061227597
253	0xbe0c6f82	-0.13714412
254	0xbda09b43	-0.07842114
255	0xbe87705e	-0.26452917

network.0.bias f4 [64]
0	0xbe77b98d	-0.24191876
1	0xbe3e9ce6	-0.1861454
2	0xbe537139	-0.2064866
3	0x3dee5a61	0.11638332
4	0xbe32b5cb	-0.17452161
5	0xbb92a7e7	-0.004475582
6	0x3dbe9971	0.093066104
7	0xbdf35fb3	-0.118834876
8	0x3dcf9142	0.101351276
9	0xbe8a8514	-0.27054656
10	0xbe2f458b	-0.17116372
11	0xbe6328dc	-0.22183555
12	0xbd994146	-0.07483153
13	0xbda3f77d	-0.08006189
14	0x3d3d9593	0.046285223
15	0xbd4989b7	-0.0492036
16	0x3de4380d	0.11143503
17	0x3e859f69	0.26098183
18	0x3e06a3e3	0.13148455
19	0xbdc2fd9c	-0.095210284
20	0xbe5a4f4f	-0.21319316
21	0x3df403a9	0.119147606
22	0xbdd48d82	-0.10378553
23	0x3e2a3523	0.16621833
24	0x3e3a9997	0.18222652
25	0x3db5c9e2	0.08876397
26	0x3e7d7d11	0.2475474
27	0x3e84e590	0.25956392
28	0x3d562348	0.05227974
29	0xbe423432	-0.18965223
30	0x3e88c225	0.2671062
31	0xbe1d10a2	-0.15338376
32	0xbdf6b8ea	-0.12046988
33	0x3e7d648e	0.2474539
34	0x3e374d09	0.1790048
35	0x3e00039c	0.12501377
36	0x38443918	4.6783214e-05
37	0xbe599721	-0.21249057
38	0x3b90980d	0.004412657
39	0x3e93d2e9	0.2887185
40	0x3dc117ce	0.094283685
41	0x3cd14aee	0.025548425
42	0xbd5c1e76	-0.053739987
43	0xbdd8320c	-0.10556421
44	0x3e094260	0.13404226
45	0xbc8bfdf3	-0.017088866
46	0x3e4d4be3	0.2004848
47	0xbcf8ce94	-0.030371942
48	0x3e041caa	0.1290156
49	0x3e031aa5	0.12803133
50	0x3ccdf629	0.025141792
51	0x3e272e31	0.16326214
52	0x3e4052ca	0.18781582
53	0x3e84711b	0.25867543
54	0x3e3f1a00	0.18662262
55	0xbd5b8654	-0.053594902
56	0xbe6cbb9b	-0.23118441
57	0x3d399bbc	0.045314535
58	0x3ce90bd6	0.028448027
59	0xbd9b6f28	-0.07589561
60	0xbcf3935c	-0.029733352
61	0x3c5b7c2a	0.013396302
62	0x3e431ba5	0.19053514
63	0x3e00816b	0.12549369

network.3.weight f4 [32, 64]
0	0xbd60ea47	-0.054910924
1	0xbd8598e5	-0.06523303
2	0xbc7f3f69	-0.015579083
3	0xbd10bc86	-0.03533604
4	0x3d9da1d5	0.07696883
5	0x3d9d87c3	0.0769191
6	0x3e061e30	0.13097453
7	0xbd0cec9c	-0.034405336
8	0x3d28dac0	0.04122424
9	0x3d9e8fa0	0.07742238
10	0xbdcdabfa	-0.100425676
11	0xbc25b282	-0.01011336
12	0x3c91091b	0.017704537
13	0xbda3cb05	-0.07997707
14	0xbe000b41	-0.12504293
15	0x3db5c4e6	0.08875446
16	0x3d6f0c8b	0.05836157
17	0x3daa9019	0.08328266
18	0x3e0a41c0	0.13501644
19	0xbc9f12e4	-0.019418187
20	0x3cfa2fda	0.030540396
21	0x3d62bd53	0.055356335
22	0xbd774eae	-0.06037777
23	0xb916ac26	-0.00014369245
24	0xbe185664	-0.14876705
25	0x3d407848	0.04698971
26	0xbd88af98	-0.06674117
27	0x3cb2b5af	0.02181515
28	0x3e1c936f	0.15290616
29	0xbca9258b	-0.020647785
30	0xbd1e1485	-0.038593788
31	0x3db959bf	0.09050321
32	0xbd9e6302	-0.07733728
33	0x3c346558	0.01101049
34	0x3e024699	0.12722243
35	0xbd720eef	-0.059096273
36	0xbd947df2	-0.07250585
37	0xbda04516	-0.07825677
38	0xbdaf52db	-0.08560725
39	0xbd93408f	-0.07190048
40	0xbda85c68	-0.0822075
41	0x3d6e6c43	0.058208715
42	0x3d1cc9ad	0.03827827
43	0xbc833bdc	-0.016019754
44	0xbdf81498	-0.12113303
45	0xbc7e518f	-0.015522375
46	0xbd15196e	-0.036401205
47	0xbd657db9	-0.0560281
48	0xbe06d60e	-0.13167593
49	0x3ca32154	0.019913353
50	0xbdb42b28	-0.08797294
51	0xbd9e42e7	-0.07727604
52	0xbde4481a	-0.11146565
53	0x3ba31eda	0.004978043
54	0xbd8a6719	-0.067579456
55	0xbd20d171	-0.03926224
56	0x3dc9f74d	0.09861622
57	0x3d3a5902	0.04549504
58	0x3dcdc8dd	0.10048077
59	0xbe0fffcf	-0.14062427
60	0xbda1bb03	-0.07896998
61	0xbd79d336	-0.060992442
62	0x3dbf3547	0.09336334
63	0x3bf6e7fe	0.00753498
64	0xbd9423af	-0.072333686
65	0xbbbefabc	-0.0058282297
66	0xbdab084a	-0.083511904
67	0xbc5e4b72	-0.013567792
68	0xbd4f3ecd	-0.050597
69	0x3e03b21e	0.12860915
70	0x3d7acfc9	0.061233316
71	0xbc8abd2c	-0.016935907
72	0x3d279a0f	0.040918406
73	0xbc42e3c5	-0.011895125
74	0x3d94070f	0.07227909
75	0x3d1c08a7	0.03809419
76	0x3d7058fb	0.05867861
77	0xbd30f25e	-0.04319989
78	0x3de1c906	0.1102467
79	0xbbe2cada	-0.0069211544
80	0xbd6c91e6	-0.057756327
81	0x3de7b774	0.11314288
82	0x3df9ebcf	0.1220318
83	0x3e230b6f	0.1592233
84	0x3dc40636	0.09571497
85	0xbcdc4e05	-0.026892671
86	0x3d835fe0	0.06414771
87	0x3e0857c5	0.13314731
88	0xbdf8f315	-0.12155739
89	0x3c3aac8e	0.011393679
90	0xbd68b44a	-0.056812562
91	0x3d4d2cc9	0.05009154
92	0x3dbd4a92	0.09242739
93	0x3b9817cb	0.004641508
94	0x3c825a83	0.0159123
95	0x3d9de6da	0.07710047
96	0xbcf407da	-0.0297889
97	0xbd9e5dd6	-0.077327415
98	0x3df8a0fb	0.121400796
99	0xbd299d38	-0.0414097
100	0x3cba4a40	0.022740483
101	0x3d2c0b3d	0.042002905
102	0xbcd74759	-0.026279138
103	0xbde36671	-0.111035235
104	0x3d537c6c	0.05163233
105	0xbd4eed30	-0.05051917
106	0xbcee31e7	-0.02907653
107	0x3d499366	0.049212836
108	0xbd5a9316	-0.05336293
109	0xbc99955c	-0.018747978
110	0xbcc6332b	-0.02419432
111	0xbc53afac	-0.012920301
112	0xbcf6f286	-0.030144941
113	0xbc181bbc	-0.009283956
114	0x3d30370f	0.043021258
115	0xbd8d277d	-0.068922974
116	0xbd292516	-0.041295134
117	0xbb7b955c	-0.0038388586
118	0x3d74322e	0.059618168
119	0x3dba49c2	0.090960994
120	0xbd495628	-0.04915443
121	0x3d70e7b0	0.058814704
122	0x3de82c8e	0.11336623
123	0x3d9ee841	0.07759143
124	0xbde7b041	-0.11312915
125	0xbd3c2a48	-0.04593876
126	0xbdaf2c82	-0.08553411
127	0xbd9112df	-0.070836775
128	0x3d9946d9	0.07484216
129	0xbbe92e9a	-0.007116151
130	0x3d7881f2	0.0606708
131	0xbd810ef8	-0.06301683
132	0x3d6e91a9	0.05824438
133	0xbd5f0762	-0.0544504
134	0x3d7bcea6	0.061476372
135	0xbacf9260	-0.001583647
136	0xbd39669c	-0.04526387
137	0xbe0989c7	-0.13431464
138	0xbbd8abc0	-0.006612271
139	0x3dff9f44	0.124815494
140	0x3d557833	0.052116584
141	0xbd2bb0a1	-0.041916493
142	0xbb9d20b0	-0.0047951564
143	0x3c83cef4	0.016089894
144	0xbd91bf0d	-0.07116518
145	0x3da193a8	0.07889491
146	0x3c0f5075	0.00874721
147	0x3d106793	0.035255026
148	0xbd9c5fc6	-0.07635455
149	0xbd4601ec	-0.048341677
150	0x3d39a33b	0.045321684
151	0x3d07001d	0.032959092
152	0x3d66ae33	0.056318473
153	0xbd0dbf8e	-0.03460651
154	0x3de5f87f	0.112290375
155	0xbc105e37	-0.008811525
156	0xbd82cf13	-0.063871525
157	0xbd998f87	-0.07498079
158	0x3de9e9e2	0.11421563
159	0x3b625bce	0.0034539583
160	0x3c091a16	0.008368036
161	0xbd4733ee	-0.04863351
162	0xbc7e7095	-0.015529771
163	0xbd41f503	-0.047352802
164	0xbda90548	-0.082529604
165	0x3da676d7	0.08128136
166	0x3e0cb466	0.13740692
167	0x3e26ad8e	0.16277143
168	0xbd81c566	-0.06336479
169	0x3d933541	0.07187892
170	0xbd7f7405	-0.062366504
171	0x3da6ca93	0.08144107
172	0x3dce490f	0.100725286
173	0x3db4cccf	0.08828127
174	0x3da68cd7	0.08132332
175	0x3d92d695	0.071698345
176	0x3cf367b4	0.029712535
177	0x3dad001d	0.08447287
178	0xbc875453	-0.016519701
179	0x3d87483a	0.06605573
180	0xbc908481	-0.017641308
181	0x3c0a8805	0.008455281
182	0xbde32e40	-0.11092806
183	0xbd3e5cc3	-0.046475183
184	0xbd3240a8	-0.043518692
185	0xbc308d3b	-0.0107758595
186	0xbdb95274	-0.0904893
187	0xbe0524a0	-0.13002253
188	0x3cd3e127	0.025864197
189	0x3dc465eb	0.09589752
190	0x3e051d53	0.12999468
191	0x3de6e0cf	0.112733476
192	0xbdc938b8	-0.09825271
193	0xbe0b62eb	-0.13611953
194	0x3d55a58d	0.052159835
195	0x3d73b6b8	0.059500426
196	0xbddff5dd	-0.109355666
197	0x3cedce36	0.029028993
198	0x3dc30936	0.09523241
199	0x3ce1be9d	0.027556712
200	0xbdafcee2	-0.08584382
201	0x3daa3170	0.08310211
202	0x3d21cdab	0.03950278
203	0x3dac874d	0.08424244
204	0xbdc121dd	-0.09430287
205	0x3dc628d4	0.09675756
206	0xbdcdd118	-0.10049647
207	0x3e03e5c5	0.12880619
208	0xbcdc5a5f	-0.026898561
209	0x3d5b9e79	0.05361793
210	0x3cde045c	0.027101688
211	0x3d102b31	0.03519744
212	0xbd7e2dfc	-0.062055573
213	0x3d1799c4	0.037011877
214	0xbc8868f0	-0.0166516
215	0xbe0b5797	-0.13607632
216	0xbccb82a7	-0.024842573
217	0x3dd25b20	0.10271287
218	0xbcce1c65	-0.025160024
219	0x3d17fd24	0.037106648
220	0xbd5a34c3	-0.053272974
221	0x3d8d8729	0.069105454
222	0x3d681f52	0.056670494
223	0x3d5d7381	0.05406523
224	0xbd18af7e	-0.037276737
225	0xbde2fa0e	-0.110828504
226	0xbba2b236	-0.004965092
227	0xbd17232d	-0.03689878
228	0x3d94e4fc	0.07270238
229	0xbdc6b138	-0.097017705
230	0x3db7964b	0.08964213
231	0x3e2974fc	0.16548532
232	0x3d685839	0.05672476
233	0x3d2cb7ba	0.042167403
234	0xbe13221b	-0.14368479
235	0x3df216fc	0.1182079
236	0xbcfdea85	-0.030995617
237	0xbe0a20a1	-0.1348901
238	0x3de403ad	0.111335136
239	0xbd17e549	-0.037083898
240	0x3cb5d2ce	0.022195246
241	0x3e03dae8	0.12876475
242	0xbd867973	-0.06566133
243	0xbdbbd601	-0.091716774
244	0x3cc95667	0.024577333
245	0xbc8fba69	-0.017544942
246	0x3d0e6f7a	0.03477428
247	0xbdfb9d3c	-0.122858495
248	0xbc45419d	-0.012039569
249	0xbc82064d	-0.015872145
250	0xbda0caba	-0.07851167
251	0xbe15aa44	-0.14615732
252	0x3db0b61f	0.08628487
253	0x3cfe5399	0.031045722
254	0xbde461c3	-0.11151459
255	0x3dfb3441	0.12265826

network.3.bias f4 [32]
0	0x3de5d325	0.11221913
1	0x3d486894	0.04892786
2	0xb9af4d14	-0.0003343603
3	0x3dc66750	0.09687674
4	0x3d843aa1	0.06456495
5	0x3deeda96	0.11662786
6	0x3db91c1a	0.09038563
7	0xbd9e4c66	-0.077294156
8	0x3d8fbcee	0.07018457
9	0x3d43c3e6	0.047794245
10	0xbdaa05e1	-0.083019026
11	0x3d9a4363	0.07532384
12	0xbd4f2ebf	-0.05058169
13	0xbd3ddc36	-0.046352588
14	0x3b006933	0.0019593954
15	0x3bbfc928	0.005852837
16	0xbb8ccc1b	-0.004296792
17	0xbdc4e0fc	-0.09613225
18	0x3d2e3977	0.04253527
19	0x3e0da97c	0.13834184
20	0xbc6d1f6f	-0.014472826
21	0xbdbdb241	-0.09262515
22	0x3cb823a8	0.02247794
23	0xbdd7d3b4	-0.10538426
24	0xbe0165db	-0.12636511
25	0xbd3b2e34	-0.04569836
26	0x3d9ceb8d	0.07662115
27	0xbdd48c2f	-0.103783004
28	0xbd03a298	-0.032137483
29	0xbd7dc83e	-0.061958544
30	0xbdc8b647	-0.09800392
31	0xbc4a6943	-0.012354198

network.6.weight f4 [1, 32]
0	0xbd112dd9	-0.035444114
1	0xbd888706	-0.06666379
2	0x3e08609d	0.13318105
3	0x3db007f1	0.08595265
4	0x3e270649	0.16310991
5	0x3da57ba2	0.08080222
6	0xbc2ed8fe	-0.010671852
7	0x3dd31784	0.103072196
8	0xbdd63d3b	-0.104608975
9	0x3dafb390	0.08579171
10	0x3de09e47	0.10967689
11	0xbd9fde58	-0.078060806
12	0xbd0039d3	-0.031305145
13	0xbe25c2ec	-0.16187638
14	0xbe1f23b4	-0.15540963
15	0x3d1bc15c	0.0380262
16	0x3da7e1fb	0.08197399
17	0xbcd424ea	-0.025896508
18	0x3d4effe3	0.050537
19	0xbe1b0e82	-0.15142253
20	0xbdc84fc5	-0.0978084
21	0x3de533f7	0.11191552
22	0xbe47dc33	-0.19517593
23	0x3d3dcfdd	0.046340812
24	0x3df486ec	0.11939797
25	0x3e2b16b4	0.1670788
26	0x3de040af	0.109498374
27	0xbe274fc4	-0.16339022
28	0x3cd7e4ab	0.026354155
29	0xbd6739c8	-0.05645159
30	0xbd8b5540	-0.068033695
31	0x3e2788f9	0.16360845
